…
epsilon = 1e-07
M = 1000
MCsteps = 25000
seed = 49886172
optimizer = adam
batch_size = 512
sample_size = 1000
val_sample_size = 1000
samples_for_autocorr = 1000
globMC = None
lr = 0.001
max_step = 1000000
lr_schedule = True
early_stopping = False
beta_anneal = 0.98
clip_grad = 1.0
no_stdout = False
clear_checkpoint = False
print_step = 100
save_step = 500
visual_step = 100
save_sample = False
print_sample = 1
print_grad = False
cuda = 1
out_infix = 
out_dir = out
start_from = 0
device = cuda:0
out_filename = out/1000_None_beta1_maxlike_nd1_nw1_made_bias_lrs_ba0.98_cg1/out

Transformer(
  (embedding): Embedding(5, 32)
  (pos_encoder): PositionalEncoding(
    (dropout): Dropout(p=0.1, inplace=False)
  )
  (transformer_encoder): TransformerEncoder(
    (layers): ModuleList(
      (0): TransformerEncoderLayer(
        (self_attn): MultiheadAttention(
          (out_proj): NonDynamicallyQuantizableLinear(in_features=32, out_features=32, bias=True)
        )
        (linear1): Linear(in_features=32, out_features=32, bias=True)
        (dropout): Dropout(p=0.1, inplace=False)
        (linear2): Linear(in_features=32, out_features=32, bias=True)
        (norm1): LayerNorm((32,), eps=1e-05, elementwise_affine=True)
        (norm2): LayerNorm((32,), eps=1e-05, elementwise_affine=True)
        (dropout1): Dropout(p=0.1, inplace=False)
        (dropout2): Dropout(p=0.1, inplace=False)
      )
      (1): TransformerEncoderLayer(
        (self_attn): MultiheadAttention(
          (out_proj): NonDynamicallyQuantizableLinear(in_features=32, out_features=32, bias=True)
        )
        (linear1): Linear(in_features=32, out_features=32, bias=True)
        (dropout): Dropout(p=0.1, inplace=False)
        (linear2): Linear(in_features=32, out_features=32, bias=True)
        (norm1): LayerNorm((32,), eps=1e-05, elementwise_affine=True)
        (norm2): LayerNorm((32,), eps=1e-05, elementwise_affine=True)
        (dropout1): Dropout(p=0.1, inplace=False)
        (dropout2): Dropout(p=0.1, inplace=False)
      )
    )
  )
  (transformer_decoder): TransformerDecoder(
    (layers): ModuleList(
      (0): TransformerDecoderLayer(
        (self_attn): MultiheadAttention(
          (out_proj): NonDynamicallyQuantizableLinear(in_features=32, out_features=32, bias=True)
        )
        (multihead_attn): MultiheadAttention(
          (out_proj): NonDynamicallyQuantizableLinear(in_features=32, out_features=32, bias=True)
        )
        (linear1): Linear(in_features=32, out_features=32, bias=True)
        (dropout): Dropout(p=0.1, inplace=False)
        (linear2): Linear(in_features=32, out_features=32, bias=True)
        (norm1): LayerNorm((32,), eps=1e-05, elementwise_affine=True)
        (norm2): LayerNorm((32,), eps=1e-05, elementwise_affine=True)
        (norm3): LayerNorm((32,), eps=1e-05, elementwise_affine=True)
        (dropout1): Dropout(p=0.1, inplace=False)
        (dropout2): Dropout(p=0.1, inplace=False)
        (dropout3): Dropout(p=0.1, inplace=False)
      )
      (1): TransformerDecoderLayer(
        (self_attn): MultiheadAttention(
          (out_proj): NonDynamicallyQuantizableLinear(in_features=32, out_features=32, bias=True)
        )
        (multihead_attn): MultiheadAttention(
          (out_proj): NonDynamicallyQuantizableLinear(in_features=32, out_features=32, bias=True)
        )
        (linear1): Linear(in_features=32, out_features=32, bias=True)
        (dropout): Dropout(p=0.1, inplace=False)
        (linear2): Linear(in_features=32, out_features=32, bias=True)
        (norm1): LayerNorm((32,), eps=1e-05, elementwise_affine=True)
        (norm2): LayerNorm((32,), eps=1e-05, elementwise_affine=True)
        (norm3): LayerNorm((32,), eps=1e-05, elementwise_affine=True)
        (dropout1): Dropout(p=0.1, inplace=False)
        (dropout2): Dropout(p=0.1, inplace=False)
        (dropout3): Dropout(p=0.1, inplace=False)
      )
    )
  )
  (fc): Linear(in_features=32, out_features=5, bias=True)
)

Total number of trainable parameters: 34757
init_time = 1.651

*** Patch size 5 from a box of size 10
%%%% Loading the full sample
*** Equilibrium E/N=0.2600036859512329
## I ordered the sites in the following way:
[0, 25, 50, 75, 100, 5, 30, 55, 80, 105, 10, 35, 60, 85, 110, 15, 40, 65, 90, 115, 20, 45, 70, 95, 120, 4, 29, 54, 79, 104, 9, 34, 59, 84, 
…
epsilon = 1e-07
M = 1000
MCsteps = 25000
seed = 93125031
optimizer = adam
batch_size = 512
sample_size = 1000
val_sample_size = 1000
samples_for_autocorr = 1000
globMC = None
lr = 0.001
max_step = 1000000
lr_schedule = True
early_stopping = False
beta_anneal = 0
clip_grad = 1.0
no_stdout = False
clear_checkpoint = False
print_step = 200
save_step = 500
visual_step = 100
save_sample = False
print_sample = 1
print_grad = False
cuda = 1
out_infix = _2e10
out_dir = out
start_from = 0
device = cuda:0
out_filename = out/1000_None_beta1_maxlike_nd3_nw64_nade_bias_lrs_cg1_2e10/out

Transformer(
  (embedding): Embedding(5, 1024)
  (pos_encoder): PositionalEncoding(
    (dropout): Dropout(p=0.1, inplace=False)
  )
  (transformer_encoder): TransformerEncoder(
    (layers): ModuleList(
      (0): TransformerEncoderLayer(
        (self_attn): MultiheadAttention(
          (out_proj): NonDynamicallyQuantizableLinear(in_features=1024, out_features=1024, bias=True)
        )
        (linear1): Linear(in_features=1024, out_features=1024, bias=True)
        (dropout): Dropout(p=0.1, inplace=False)
        (linear2): Linear(in_features=1024, out_features=1024, bias=True)
        (norm1): LayerNorm((1024,), eps=1e-05, elementwise_affine=True)
        (norm2): LayerNorm((1024,), eps=1e-05, elementwise_affine=True)
        (dropout1): Dropout(p=0.1, inplace=False)
        (dropout2): Dropout(p=0.1, inplace=False)
      )
      (1): TransformerEncoderLayer(
        (self_attn): MultiheadAttention(
          (out_proj): NonDynamicallyQuantizableLinear(in_features=1024, out_features=1024, bias=True)
        )
        (linear1): Linear(in_features=1024, out_features=1024, bias=True)
        (dropout): Dropout(p=0.1, inplace=False)
        (linear2): Linear(in_features=1024, out_features=1024, bias=True)
        (norm1): LayerNorm((1024,), eps=1e-05, elementwise_affine=True)
        (norm2): LayerNorm((1024,), eps=1e-05, elementwise_affine=True)
        (dropout1): Dropout(p=0.1, inplace=False)
        (dropout2): Dropout(p=0.1, inplace=False)
      )
    )
  )
  (transformer_decoder): TransformerDecoder(
    (layers): ModuleList(
      (0): TransformerDecoderLayer(
        (self_attn): MultiheadAttention(
          (out_proj): NonDynamicallyQuantizableLinear(in_features=1024, out_features=1024, bias=True)
        )
        (multihead_attn): MultiheadAttention(
          (out_proj): NonDynamicallyQuantizableLinear(in_features=1024, out_features=1024, bias=True)
        )
        (linear1): Linear(in_features=1024, out_features=1024, bias=True)
        (dropout): Dropout(p=0.1, inplace=False)
        (linear2): Linear(in_features=1024, out_features=1024, bias=True)
        (norm1): LayerNorm((1024,), eps=1e-05, elementwise_affine=True)
        (norm2): LayerNorm((1024,), eps=1e-05, elementwise_affine=True)
        (norm3): LayerNorm((1024,), eps=1e-05, elementwise_affine=True)
        (dropout1): Dropout(p=0.1, inplace=False)
        (dropout2): Dropout(p=0.1, inplace=False)
        (dropout3): Dropout(p=0.1, inplace=False)
      )
      (1): TransformerDecoderLayer(
        (self_attn): MultiheadAttention(
          (out_proj): NonDynamicallyQuantizableLinear(in_features=1024, out_features=1024, bias=True)
        )
        (multihead_attn): MultiheadAttention(
          (out_proj): NonDynamicallyQuantizableLinear(in_features=1024, out_features=1024, bias=True)
        )
        (linear1): Linear(in_features=1024, out_features=1024, bias=True)
        (dropout): Dropout(p=0.1, inplace=False)
        (linear2): Linear(in_features=1024, out_features=1024, bias=True)
        (norm1): LayerNorm((1024,), eps=1e-05, elementwise_affine=True)
        (norm2): LayerNorm((1024,), eps=1e-05, elementwise_affine=True)
        (norm3): LayerNorm((1024,), eps=1e-05, elementwise_affine=True)
        (dropout1): Dropout(p=0.1, inplace=False)
        (dropout2): Dropout(p=0.1, inplace=False)
        (dropout3): Dropout(p=0.1, inplace=False)
      )
    )
  )
  (fc): Linear(in_features=1024, out_features=5, bias=True)
)

Total number of trainable parameters: 33617925
init_time = 2.276

*** Patch size 5 from a box of size 10
%%%% Loading the full sample
*** Equilibrium E/N=0.2600036859512329
## I ordered the sites in the following way:
[0, 25, 50, 75, 100, 5, 30, 55, 80, 105, 10, 35, 60, 85, 110, 15, 40, 65, 90, 115, 20, 45, 70, 95, 120, 4, 29, 54, 79, 104, 9, 34, 59,
…
epsilon = 1e-07
M = 1000
MCsteps = 25000
seed = 72636801
optimizer = adam
batch_size = 512
sample_size = 1000
val_sample_size = 1000
samples_for_autocorr = 1000
globMC = None
lr = 0.001
max_step = 1000000
lr_schedule = True
early_stopping = False
beta_anneal = 0
clip_grad = 1.0
no_stdout = False
clear_checkpoint = False
print_step = 200
save_step = 500
visual_step = 100
save_sample = False
print_sample = 1
print_grad = False
cuda = 6
out_infix = _2e12
out_dir = out
start_from = 0
device = cuda:0
out_filename = out/1000_None_beta1_maxlike_nd3_nw64_nade_bias_lrs_cg1_2e12/out

Transformer(
  (embedding): Embedding(5, 4096)
  (pos_encoder): PositionalEncoding(
    (dropout): Dropout(p=0.1, inplace=False)
  )
  (transformer_encoder): TransformerEncoder(
    (layers): ModuleList(
      (0): TransformerEncoderLayer(
        (self_attn): MultiheadAttention(
          (out_proj): NonDynamicallyQuantizableLinear(in_features=4096, out_features=4096, bias=True)
        )
        (linear1): Linear(in_features=4096, out_features=4096, bias=True)
        (dropout): Dropout(p=0.1, inplace=False)
        (linear2): Linear(in_features=4096, out_features=4096, bias=True)
        (norm1): LayerNorm((4096,), eps=1e-05, elementwise_affine=True)
        (norm2): LayerNorm((4096,), eps=1e-05, elementwise_affine=True)
        (dropout1): Dropout(p=0.1, inplace=False)
        (dropout2): Dropout(p=0.1, inplace=False)
      )
      (1): TransformerEncoderLayer(
        (self_attn): MultiheadAttention(
          (out_proj): NonDynamicallyQuantizableLinear(in_features=4096, out_features=4096, bias=True)
        )
        (linear1): Linear(in_features=4096, out_features=4096, bias=True)
        (dropout): Dropout(p=0.1, inplace=False)
        (linear2): Linear(in_features=4096, out_features=4096, bias=True)
        (norm1): LayerNorm((4096,), eps=1e-05, elementwise_affine=True)
        (norm2): LayerNorm((4096,), eps=1e-05, elementwise_affine=True)
        (dropout1): Dropout(p=0.1, inplace=False)
        (dropout2): Dropout(p=0.1, inplace=False)
      )
    )
  )
  (transformer_decoder): TransformerDecoder(
    (layers): ModuleList(
      (0): TransformerDecoderLayer(
        (self_attn): MultiheadAttention(
          (out_proj): NonDynamicallyQuantizableLinear(in_features=4096, out_features=4096, bias=True)
        )
        (multihead_attn): MultiheadAttention(
          (out_proj): NonDynamicallyQuantizableLinear(in_features=4096, out_features=4096, bias=True)
        )
        (linear1): Linear(in_features=4096, out_features=4096, bias=True)
        (dropout): Dropout(p=0.1, inplace=False)
        (linear2): Linear(in_features=4096, out_features=4096, bias=True)
        (norm1): LayerNorm((4096,), eps=1e-05, elementwise_affine=True)
        (norm2): LayerNorm((4096,), eps=1e-05, elementwise_affine=True)
        (norm3): LayerNorm((4096,), eps=1e-05, elementwise_affine=True)
        (dropout1): Dropout(p=0.1, inplace=False)
        (dropout2): Dropout(p=0.1, inplace=False)
        (dropout3): Dropout(p=0.1, inplace=False)
      )
      (1): TransformerDecoderLayer(
        (self_attn): MultiheadAttention(
          (out_proj): NonDynamicallyQuantizableLinear(in_features=4096, out_features=4096, bias=True)
        )
        (multihead_attn): MultiheadAttention(
          (out_proj): NonDynamicallyQuantizableLinear(in_features=4096, out_features=4096, bias=True)
        )
        (linear1): Linear(in_features=4096, out_features=4096, bias=True)
        (dropout): Dropout(p=0.1, inplace=False)
        (linear2): Linear(in_features=4096, out_features=4096, bias=True)
        (norm1): LayerNorm((4096,), eps=1e-05, elementwise_affine=True)
        (norm2): LayerNorm((4096,), eps=1e-05, elementwise_affine=True)
        (norm3): LayerNorm((4096,), eps=1e-05, elementwise_affine=True)
        (dropout1): Dropout(p=0.1, inplace=False)
        (dropout2): Dropout(p=0.1, inplace=False)
        (dropout3): Dropout(p=0.1, inplace=False)
      )
    )
  )
  (fc): Linear(in_features=4096, out_features=5, bias=True)
)

Total number of trainable parameters: 537124869
init_time = 4.744

*** Patch size 5 from a box of size 10
%%%% Loading the full sample
*** Equilibrium E/N=0.2600036859512329
## I ordered the sites in the following way:
[0, 25, 50, 75, 100, 5, 30, 55, 80, 105, 10, 35, 60, 85, 110, 15, 40, 65, 90, 115, 20, 45, 70, 95, 120, 4, 29, 54, 79, 104, 9, 34, 59
…
epsilon = 1e-07
M = 1000
MCsteps = 25000
seed = 70065373
optimizer = adam
batch_size = 512
sample_size = 1000
val_sample_size = 1000
samples_for_autocorr = 1000
globMC = None
lr = 0.001
max_step = 1000000
lr_schedule = True
early_stopping = False
beta_anneal = 0
clip_grad = 1.0
no_stdout = False
clear_checkpoint = False
print_step = 200
save_step = 500
visual_step = 100
save_sample = False
print_sample = 1
print_grad = False
cuda = 1
out_infix = _2e8
out_dir = out
start_from = 0
device = cuda:0
out_filename = out/1000_None_beta1_maxlike_nd3_nw64_nade_bias_lrs_cg1_2e8/out

Transformer(
  (embedding): Embedding(5, 256)
  (pos_encoder): PositionalEncoding(
    (dropout): Dropout(p=0.1, inplace=False)
  )
  (transformer_encoder): TransformerEncoder(
    (layers): ModuleList(
      (0): TransformerEncoderLayer(
        (self_attn): MultiheadAttention(
          (out_proj): NonDynamicallyQuantizableLinear(in_features=256, out_features=256, bias=True)
        )
        (linear1): Linear(in_features=256, out_features=256, bias=True)
        (dropout): Dropout(p=0.1, inplace=False)
        (linear2): Linear(in_features=256, out_features=256, bias=True)
        (norm1): LayerNorm((256,), eps=1e-05, elementwise_affine=True)
        (norm2): LayerNorm((256,), eps=1e-05, elementwise_affine=True)
        (dropout1): Dropout(p=0.1, inplace=False)
        (dropout2): Dropout(p=0.1, inplace=False)
      )
      (1): TransformerEncoderLayer(
        (self_attn): MultiheadAttention(
          (out_proj): NonDynamicallyQuantizableLinear(in_features=256, out_features=256, bias=True)
        )
        (linear1): Linear(in_features=256, out_features=256, bias=True)
        (dropout): Dropout(p=0.1, inplace=False)
        (linear2): Linear(in_features=256, out_features=256, bias=True)
        (norm1): LayerNorm((256,), eps=1e-05, elementwise_affine=True)
        (norm2): LayerNorm((256,), eps=1e-05, elementwise_affine=True)
        (dropout1): Dropout(p=0.1, inplace=False)
        (dropout2): Dropout(p=0.1, inplace=False)
      )
    )
  )
  (transformer_decoder): TransformerDecoder(
    (layers): ModuleList(
      (0): TransformerDecoderLayer(
        (self_attn): MultiheadAttention(
          (out_proj): NonDynamicallyQuantizableLinear(in_features=256, out_features=256, bias=True)
        )
        (multihead_attn): MultiheadAttention(
          (out_proj): NonDynamicallyQuantizableLinear(in_features=256, out_features=256, bias=True)
        )
        (linear1): Linear(in_features=256, out_features=256, bias=True)
        (dropout): Dropout(p=0.1, inplace=False)
        (linear2): Linear(in_features=256, out_features=256, bias=True)
        (norm1): LayerNorm((256,), eps=1e-05, elementwise_affine=True)
        (norm2): LayerNorm((256,), eps=1e-05, elementwise_affine=True)
        (norm3): LayerNorm((256,), eps=1e-05, elementwise_affine=True)
        (dropout1): Dropout(p=0.1, inplace=False)
        (dropout2): Dropout(p=0.1, inplace=False)
        (dropout3): Dropout(p=0.1, inplace=False)
      )
      (1): TransformerDecoderLayer(
        (self_attn): MultiheadAttention(
          (out_proj): NonDynamicallyQuantizableLinear(in_features=256, out_features=256, bias=True)
        )
        (multihead_attn): MultiheadAttention(
          (out_proj): NonDynamicallyQuantizableLinear(in_features=256, out_features=256, bias=True)
        )
        (linear1): Linear(in_features=256, out_features=256, bias=True)
        (dropout): Dropout(p=0.1, inplace=False)
        (linear2): Linear(in_features=256, out_features=256, bias=True)
        (norm1): LayerNorm((256,), eps=1e-05, elementwise_affine=True)
        (norm2): LayerNorm((256,), eps=1e-05, elementwise_affine=True)
        (norm3): LayerNorm((256,), eps=1e-05, elementwise_affine=True)
        (dropout1): Dropout(p=0.1, inplace=False)
        (dropout2): Dropout(p=0.1, inplace=False)
        (dropout3): Dropout(p=0.1, inplace=False)
      )
    )
  )
  (fc): Linear(in_features=256, out_features=5, bias=True)
)

Total number of trainable parameters: 2113029
init_time = 1.607

*** Patch size 5 from a box of size 10
%%%% Loading the full sample
*** Equilibrium E/N=0.2600036859512329
## I ordered the sites in the following way:
[0, 25, 50, 75, 100, 5, 30, 55, 80, 105, 10, 35, 60, 85, 110, 15, 40, 65, 90, 115, 20, 45, 70, 95, 120, 4, 29, 54, 79, 104, 9, 34, 59, 8
…
